…
2019-04-24 10:48:42.005379: I tensorflow/core/common_runtime/gpu/gpu_device.cc:1115] Created TensorFlow device (/job:localhost/replica:0/task:0/device:GPU:0 with 14410 MB memory) -> physical GPU (device: 0, name: Tesla P100-PCIE-16GB, pci bus id: 0000:83:00.0, compute capability: 6.0)
Namespace(dataset='bike', gpu='3', len_local=7, lr=0.0001, neighbor_size=3, stack_convlstm=6)

 Load data elapsed time : 0.227 seconds

==============================
Model: "convlstm"
_________________________________________________________________
Layer (type)                 Output Shape              Param #   
=================================================================
stack_local_flow (InputLayer (None, 14, 7, 7)          0         
_________________________________________________________________
reshape_1 (Reshape)          (None, 7, 2, 7, 7)        0         
_________________________________________________________________
conv_lst_m2d_1 (ConvLSTM2D)  (None, 7, 32, 7, 7)       39296     
_________________________________________________________________
activation_1 (Activation)    (None, 7, 32, 7, 7)       0         
_________________________________________________________________
batch_normalization_1 (Batch (None, 7, 32, 7, 7)       128       
_________________________________________________________________
conv_lst_m2d_2 (ConvLSTM2D)  (None, 7, 32, 7, 7)       73856     
_________________________________________________________________
activation_2 (Activation)    (None, 7, 32, 7, 7)       0         
_________________________________________________________________
batch_normalization_2 (Batch (None, 7, 32, 7, 7)       128       
_________________________________________________________________
conv_lst_m2d_3 (ConvLSTM2D)  (None, 7, 32, 7, 7)       73856     
_________________________________________________________________
activation_3 (Activation)    (None, 7, 32, 7, 7)       0         
_________________________________________________________________
batch_normalization_3 (Batch (None, 7, 32, 7, 7)       128       
_________________________________________________________________
conv_lst_m2d_4 (ConvLSTM2D)  (None, 7, 32, 7, 7)       73856     
_________________________________________________________________
activation_4 (Activation)    (None, 7, 32, 7, 7)       0         
_________________________________________________________________
batch_normalization_4 (Batch (None, 7, 32, 7, 7)       128       
_________________________________________________________________
conv_lst_m2d_5 (ConvLSTM2D)  (None, 7, 32, 7, 7)       73856     
_________________________________________________________________
activation_5 (Activation)    (None, 7, 32, 7, 7)       0         
_________________________________________________________________
batch_normalization_5 (Batch (None, 7, 32, 7, 7)       128       
_________________________________________________________________
conv_lst_m2d_6 (ConvLSTM2D)  (None, 32, 7, 7)          73856     
_________________________________________________________________
activation_6 (Activation)    (None, 32, 7, 7)          0         
_________________________________________________________________
batch_normalization_6 (Batch (None, 32, 7, 7)          28        
_________________________________________________________________
conv2d_1 (Conv2D)            (None, 2, 7, 7)           578       
_________________________________________________________________
activation_7 (Activation)    (None, 2, 7, 7)           0         
=================================================================
Total params: 409,822
Trainable params: 409,488
Non-trainable params: 334
_________________________________________________________________

Compiling model elapsed time : 2.237 seconds

==============================
Train on 18729 samples, validate on 2081 samples
Epoch 1/500
 - 107s - loss: 0.0412 - rmse: 0.1328 - mape: 23.3435 - val_loss: 0.0156 - val_rmse: 0.0948 - val_mape: 24.2140
…
