…
2019-04-09 21:58:57.654513: I tensorflow/core/common_runtime/gpu/gpu_device.cc:1115] Created TensorFlow device (/job:localhost/replica:0/task:0/device:GPU:0 with 15129 MB memory) -> physical GPU (device: 0, name: Tesla P100-PCIE-16GB, pci bus id: 0000:82:00.0, compute capability: 6.0)
Namespace(BN=1, cnn=6, len_local=7, lr=0.0001, neighbor_size=3, res=12)

 Load data elapsed time : 14.455 seconds

==============================
Model: "GLST-Net_noglobal"
__________________________________________________________________________________________________
Layer (type)                    Output Shape         Param #     Connected to                     
==================================================================================================
current_local_flow (InputLayer) (None, 2, 7, 7)      0                                            
__________________________________________________________________________________________________
stack_local_flow (InputLayer)   (None, 14, 7, 7)     0                                            
__________________________________________________________________________________________________
batch_normalization_1 (BatchNor (None, 2, 7, 7)      8           current_local_flow[0][0]         
__________________________________________________________________________________________________
batch_normalization_7 (BatchNor (None, 14, 7, 7)     56          stack_local_flow[0][0]           
__________________________________________________________________________________________________
activation_3 (Activation)       (None, 2, 7, 7)      0           batch_normalization_1[0][0]      
__________________________________________________________________________________________________
activation_10 (Activation)      (None, 14, 7, 7)     0           batch_normalization_7[0][0]      
__________________________________________________________________________________________________
conv2d_1 (Conv2D)               (None, 64, 7, 7)     1216        activation_3[0][0]               
__________________________________________________________________________________________________
conv2d_8 (Conv2D)               (None, 64, 7, 7)     8128        activation_10[0][0]              
__________________________________________________________________________________________________
batch_normalization_2 (BatchNor (None, 64, 7, 7)     256         conv2d_1[0][0]                   
__________________________________________________________________________________________________
batch_normalization_8 (BatchNor (None, 64, 7, 7)     256         conv2d_8[0][0]                   
__________________________________________________________________________________________________
activation_4 (Activation)       (None, 64, 7, 7)     0           batch_normalization_2[0][0]      
__________________________________________________________________________________________________
activation_11 (Activation)      (None, 64, 7, 7)     0           batch_normalization_8[0][0]      
__________________________________________________________________________________________________
conv2d_2 (Conv2D)               (None, 64, 7, 7)     36928       activation_4[0][0]               
__________________________________________________________________________________________________
conv2d_9 (Conv2D)               (None, 64, 7, 7)     36928       activation_11[0][0]              
__________________________________________________________________________________________________
batch_normalization_3 (BatchNor (None, 64, 7, 7)     256         conv2d_2[0][0]                   
__________________________________________________________________________________________________
batch_normalization_9 (BatchNor (None, 64, 7, 7)     256         conv2d_9[0][0]                   
__________________________________________________________________________________________________
activation_5 (Activation)       (None, 64, 7, 7)     0           batch_normalization_3[0][0]      
__________________________________________________________________________________________________
activation_12 (Activation)      (None, 64, 7, 7)     0           batch_normalization_9[0][0]      
__________________________________________________________________________________________________
conv2d_3 (Conv2D)               (None, 64, 7, 7)     36928       activation_5[0][0]               
__________________________________________________________________________________________________
conv2d_10 (Conv2D)              (None, 64, 7, 7)     36928       activation_12[0][0]              
__________________________________________________________________________________________________
batch_normalization_4 (BatchNor (None, 64, 7, 7)     256         conv2d_3[0][0]                   
__________________________________________________________________________________________________
batch_normalization_10 (BatchNo (None, 64, 7, 7)     256         conv2d_10[0][0]                  
__________________________________________________________________________________________________
activation_6 (Activation)       (None, 64, 7, 7)     0           batch_normalization_4[0][0]      
__________________________________________________________________________________________________
activation_13 (Activation)      (None, 64, 7, 7)     0           batch_normalization_10[0][0]     
__________________________________________________________________________________________________
conv2d_4 (Conv2D)               (None, 64, 7, 7)     36928       activation_6[0][0]               
__________________________________________________________________________________________________
conv2d_11 (Conv2D)              (None, 64, 7, 7)     36928       activation_13[0][0]              
__________________________________________________________________________________________________
t_vacation (InputLayer)         (None, 7)            0                                            
__________________________________________________________________________________________________
t_hour (InputLayer)             (None, 7)            0                                            
__________________________________________________________________________________________________
t_dayOfWeek (InputLayer)        (None, 7)            0                                            
__________________________________________________________________________________________________
t_weather (InputLayer)          (None, 7)            0                                            
__________________________________________________________________________________________________
batch_normalization_5 (BatchNor (None, 64, 7, 7)     256         conv2d_4[0][0]                   
__________________________________________________________________________________________________
batch_normalization_11 (BatchNo (None, 64, 7, 7)     256         conv2d_11[0][0]                  
__________________________________________________________________________________________________
embedding_1 (Embedding)         (None, 7, 2)         4           t_vacation[0][0]                 
__________________________________________________________________________________________________
embedding_2 (Embedding)         (None, 7, 2)         50          t_hour[0][0]                     
__________________________________________________________________________________________________
embedding_3 (Embedding)         (None, 7, 2)         14          t_dayOfWeek[0][0]                
__________________________________________________________________________________________________
embedding_4 (Embedding)         (None, 7, 2)         34          t_weather[0][0]                  
__________________________________________________________________________________________________
t_continuous_external (InputLay (None, 7, 2)         0                                            
__________________________________________________________________________________________________
activation_7 (Activation)       (None, 64, 7, 7)     0           batch_normalization_5[0][0]      
__________________________________________________________________________________________________
activation_14 (Activation)      (None, 64, 7, 7)     0           batch_normalization_11[0][0]     
__________________________________________________________________________________________________
concatenate_1 (Concatenate)     (None, 7, 10)        0           embedding_1[0][0]                
                                                                 embedding_2[0][0]                
                                                                 embedding_3[0][0]                
                                                                 embedding_4[0][0]                
                                                                 t_continuous_external[0][0]      
__________________________________________________________________________________________________
conv2d_5 (Conv2D)               (None, 64, 7, 7)     36928       activation_7[0][0]               
__________________________________________________________________________________________________
conv2d_12 (Conv2D)              (None, 64, 7, 7)     36928       activation_14[0][0]              
__________________________________________________________________________________________________
flatten_1 (Flatten)             (None, 70)           0           concatenate_1[0][0]              
__________________________________________________________________________________________________
batch_normalization_6 (BatchNor (None, 64, 7, 7)     256         conv2d_5[0][0]                   
__________________________________________________________________________________________________
batch_normalization_12 (BatchNo (None, 64, 7, 7)     256         conv2d_12[0][0]                  
__________________________________________________________________________________________________
dense_1 (Dense)                 (None, 50)           3550        flatten_1[0][0]                  
__________________________________________________________________________________________________
activation_8 (Activation)       (None, 64, 7, 7)     0           batch_normalization_6[0][0]      
__________________________________________________________________________________________________
activation_15 (Activation)      (None, 64, 7, 7)     0           batch_normalization_12[0][0]     
__________________________________________________________________________________________________
dropout_1 (Dropout)             (None, 50)           0           dense_1[0][0]                    
__________________________________________________________________________________________________
conv2d_6 (Conv2D)               (None, 64, 7, 7)     36928       activation_8[0][0]               
__________________________________________________________________________________________________
conv2d_13 (Conv2D)              (None, 64, 7, 7)     36928       activation_15[0][0]              
__________________________________________________________________________________________________
activation_1 (Activation)       (None, 50)           0           dropout_1[0][0]                  
__________________________________________________________________________________________________
activation_9 (Activation)       (None, 64, 7, 7)     0           conv2d_6[0][0]                   
__________________________________________________________________________________________________
activation_16 (Activation)      (None, 64, 7, 7)     0           conv2d_13[0][0]                  
__________________________________________________________________________________________________
dense_2 (Dense)                 (None, 98)           4998        activation_1[0][0]               
__________________________________________________________________________________________________
conv2d_7 (Conv2D)               (None, 2, 7, 7)      1154        activation_9[0][0]               
__________________________________________________________________________________________________
conv2d_14 (Conv2D)              (None, 2, 7, 7)      1154        activation_16[0][0]              
__________________________________________________________________________________________________
activation_2 (Activation)       (None, 98)           0           dense_2[0][0]                    
__________________________________________________________________________________________________
ilayer_1 (ilayer)               (None, 2, 7, 7)      98          conv2d_7[0][0]                   
__________________________________________________________________________________________________
ilayer_2 (ilayer)               (None, 2, 7, 7)      98          conv2d_14[0][0]                  
__________________________________________________________________________________________________
reshape_1 (Reshape)             (None, 2, 7, 7)      0           activation_2[0][0]               
__________________________________________________________________________________________________
add_1 (Add)                     (None, 2, 7, 7)      0           ilayer_1[0][0]                   
                                                                 ilayer_2[0][0]                   
__________________________________________________________________________________________________
add_2 (Add)                     (None, 2, 7, 7)      0           reshape_1[0][0]                  
                                                                 add_1[0][0]                      
__________________________________________________________________________________________________
activation_17 (Activation)      (None, 2, 7, 7)      0           add_2[0][0]                      
==================================================================================================
Total params: 392,402
Trainable params: 391,090
Non-trainable params: 1,312
__________________________________________________________________________________________________

Compiling model elapsed time : 3.597 seconds

==============================
Train on 27936 samples, validate on 3105 samples
…
