…
2019-04-19 16:14:36.437650: I tensorflow/core/common_runtime/gpu/gpu_device.cc:1115] Created TensorFlow device (/job:localhost/replica:0/task:0/device:GPU:0 with 7439 MB memory) -> physical GPU (device: 0, name: Tesla P100-PCIE-16GB, pci bus id: 0000:02:00.0, compute capability: 6.0)
Namespace(BN=1, cnn=6, gpu='0', len_global=1, len_local=1, lr=0.0001, neighbor_size=2, res=12)

 Load data elapsed time : 0.454 seconds

==============================
Model: "GLST-Net"
__________________________________________________________________________________________________
Layer (type)                    Output Shape         Param #     Connected to                     
==================================================================================================
global_flow (InputLayer)        (None, 2, 32, 32)    0                                            
__________________________________________________________________________________________________
conv2d_1 (Conv2D)               (None, 64, 32, 32)   1216        global_flow[0][0]                
__________________________________________________________________________________________________
activation_5 (Activation)       (None, 64, 32, 32)   0           conv2d_1[0][0]                   
__________________________________________________________________________________________________
batch_normalization_1 (BatchNor (None, 64, 32, 32)   256         activation_5[0][0]               
__________________________________________________________________________________________________
activation_6 (Activation)       (None, 64, 32, 32)   0           batch_normalization_1[0][0]      
__________________________________________________________________________________________________
conv2d_2 (Conv2D)               (None, 64, 32, 32)   36928       activation_6[0][0]               
__________________________________________________________________________________________________
batch_normalization_2 (BatchNor (None, 64, 32, 32)   256         conv2d_2[0][0]                   
__________________________________________________________________________________________________
conv2d_3 (Conv2D)               (None, 64, 32, 32)   36928       batch_normalization_2[0][0]      
__________________________________________________________________________________________________
batch_normalization_3 (BatchNor (None, 64, 32, 32)   256         conv2d_3[0][0]                   
__________________________________________________________________________________________________
activation_7 (Activation)       (None, 64, 32, 32)   0           batch_normalization_3[0][0]      
__________________________________________________________________________________________________
conv2d_4 (Conv2D)               (None, 64, 32, 32)   36928       activation_7[0][0]               
__________________________________________________________________________________________________
batch_normalization_4 (BatchNor (None, 64, 32, 32)   256         conv2d_4[0][0]                   
__________________________________________________________________________________________________
conv2d_5 (Conv2D)               (None, 64, 32, 32)   36928       batch_normalization_4[0][0]      
__________________________________________________________________________________________________
batch_normalization_5 (BatchNor (None, 64, 32, 32)   256         conv2d_5[0][0]                   
__________________________________________________________________________________________________
activation_8 (Activation)       (None, 64, 32, 32)   0           batch_normalization_5[0][0]      
__________________________________________________________________________________________________
conv2d_6 (Conv2D)               (None, 64, 32, 32)   36928       activation_8[0][0]               
__________________________________________________________________________________________________
batch_normalization_6 (BatchNor (None, 64, 32, 32)   256         conv2d_6[0][0]                   
__________________________________________________________________________________________________
conv2d_7 (Conv2D)               (None, 64, 32, 32)   36928       batch_normalization_6[0][0]      
__________________________________________________________________________________________________
batch_normalization_7 (BatchNor (None, 64, 32, 32)   256         conv2d_7[0][0]                   
__________________________________________________________________________________________________
activation_9 (Activation)       (None, 64, 32, 32)   0           batch_normalization_7[0][0]      
__________________________________________________________________________________________________
conv2d_8 (Conv2D)               (None, 64, 32, 32)   36928       activation_9[0][0]               
__________________________________________________________________________________________________
batch_normalization_8 (BatchNor (None, 64, 32, 32)   256         conv2d_8[0][0]                   
__________________________________________________________________________________________________
conv2d_9 (Conv2D)               (None, 64, 32, 32)   36928       batch_normalization_8[0][0]      
__________________________________________________________________________________________________
batch_normalization_9 (BatchNor (None, 64, 32, 32)   256         conv2d_9[0][0]                   
__________________________________________________________________________________________________
activation_10 (Activation)      (None, 64, 32, 32)   0           batch_normalization_9[0][0]      
__________________________________________________________________________________________________
conv2d_10 (Conv2D)              (None, 64, 32, 32)   36928       activation_10[0][0]              
__________________________________________________________________________________________________
batch_normalization_10 (BatchNo (None, 64, 32, 32)   256         conv2d_10[0][0]                  
__________________________________________________________________________________________________
conv2d_11 (Conv2D)              (None, 64, 32, 32)   36928       batch_normalization_10[0][0]     
__________________________________________________________________________________________________
batch_normalization_11 (BatchNo (None, 64, 32, 32)   256         conv2d_11[0][0]                  
__________________________________________________________________________________________________
activation_11 (Activation)      (None, 64, 32, 32)   0           batch_normalization_11[0][0]     
__________________________________________________________________________________________________
conv2d_12 (Conv2D)              (None, 64, 32, 32)   36928       activation_11[0][0]              
__________________________________________________________________________________________________
batch_normalization_12 (BatchNo (None, 64, 32, 32)   256         conv2d_12[0][0]                  
__________________________________________________________________________________________________
conv2d_13 (Conv2D)              (None, 64, 32, 32)   36928       batch_normalization_12[0][0]     
__________________________________________________________________________________________________
batch_normalization_13 (BatchNo (None, 64, 32, 32)   256         conv2d_13[0][0]                  
__________________________________________________________________________________________________
activation_12 (Activation)      (None, 64, 32, 32)   0           batch_normalization_13[0][0]     
__________________________________________________________________________________________________
conv2d_14 (Conv2D)              (None, 64, 32, 32)   36928       activation_12[0][0]              
__________________________________________________________________________________________________
batch_normalization_14 (BatchNo (None, 64, 32, 32)   256         conv2d_14[0][0]                  
__________________________________________________________________________________________________
conv2d_15 (Conv2D)              (None, 64, 32, 32)   36928       batch_normalization_14[0][0]     
__________________________________________________________________________________________________
batch_normalization_15 (BatchNo (None, 64, 32, 32)   256         conv2d_15[0][0]                  
__________________________________________________________________________________________________
activation_13 (Activation)      (None, 64, 32, 32)   0           batch_normalization_15[0][0]     
__________________________________________________________________________________________________
conv2d_16 (Conv2D)              (None, 64, 32, 32)   36928       activation_13[0][0]              
__________________________________________________________________________________________________
batch_normalization_16 (BatchNo (None, 64, 32, 32)   256         conv2d_16[0][0]                  
__________________________________________________________________________________________________
conv2d_17 (Conv2D)              (None, 64, 32, 32)   36928       batch_normalization_16[0][0]     
__________________________________________________________________________________________________
batch_normalization_17 (BatchNo (None, 64, 32, 32)   256         conv2d_17[0][0]                  
__________________________________________________________________________________________________
activation_14 (Activation)      (None, 64, 32, 32)   0           batch_normalization_17[0][0]     
__________________________________________________________________________________________________
conv2d_18 (Conv2D)              (None, 64, 32, 32)   36928       activation_14[0][0]              
__________________________________________________________________________________________________
batch_normalization_18 (BatchNo (None, 64, 32, 32)   256         conv2d_18[0][0]                  
__________________________________________________________________________________________________
conv2d_19 (Conv2D)              (None, 64, 32, 32)   36928       batch_normalization_18[0][0]     
__________________________________________________________________________________________________
stack_local_flow (InputLayer)   (None, 2, 5, 5)      0                                            
__________________________________________________________________________________________________
batch_normalization_19 (BatchNo (None, 64, 32, 32)   256         conv2d_19[0][0]                  
__________________________________________________________________________________________________
batch_normalization_25 (BatchNo (None, 2, 5, 5)      8           stack_local_flow[0][0]           
__________________________________________________________________________________________________
activation_15 (Activation)      (None, 64, 32, 32)   0           batch_normalization_19[0][0]     
__________________________________________________________________________________________________
activation_20 (Activation)      (None, 2, 5, 5)      0           batch_normalization_25[0][0]     
__________________________________________________________________________________________________
conv2d_20 (Conv2D)              (None, 64, 32, 32)   36928       activation_15[0][0]              
__________________________________________________________________________________________________
conv2d_27 (Conv2D)              (None, 32, 5, 5)     608         activation_20[0][0]              
__________________________________________________________________________________________________
batch_normalization_20 (BatchNo (None, 64, 32, 32)   256         conv2d_20[0][0]                  
__________________________________________________________________________________________________
batch_normalization_26 (BatchNo (None, 32, 5, 5)     128         conv2d_27[0][0]                  
__________________________________________________________________________________________________
conv2d_21 (Conv2D)              (None, 64, 32, 32)   36928       batch_normalization_20[0][0]     
__________________________________________________________________________________________________
activation_21 (Activation)      (None, 32, 5, 5)     0           batch_normalization_26[0][0]     
__________________________________________________________________________________________________
batch_normalization_21 (BatchNo (None, 64, 32, 32)   256         conv2d_21[0][0]                  
__________________________________________________________________________________________________
conv2d_28 (Conv2D)              (None, 32, 5, 5)     9248        activation_21[0][0]              
__________________________________________________________________________________________________
activation_16 (Activation)      (None, 64, 32, 32)   0           batch_normalization_21[0][0]     
__________________________________________________________________________________________________
batch_normalization_27 (BatchNo (None, 32, 5, 5)     128         conv2d_28[0][0]                  
__________________________________________________________________________________________________
conv2d_22 (Conv2D)              (None, 64, 32, 32)   36928       activation_16[0][0]              
__________________________________________________________________________________________________
activation_22 (Activation)      (None, 32, 5, 5)     0           batch_normalization_27[0][0]     
__________________________________________________________________________________________________
batch_normalization_22 (BatchNo (None, 64, 32, 32)   256         conv2d_22[0][0]                  
__________________________________________________________________________________________________
conv2d_29 (Conv2D)              (None, 32, 5, 5)     9248        activation_22[0][0]              
__________________________________________________________________________________________________
conv2d_23 (Conv2D)              (None, 64, 32, 32)   36928       batch_normalization_22[0][0]     
__________________________________________________________________________________________________
batch_normalization_28 (BatchNo (None, 32, 5, 5)     128         conv2d_29[0][0]                  
__________________________________________________________________________________________________
batch_normalization_23 (BatchNo (None, 64, 32, 32)   256         conv2d_23[0][0]                  
__________________________________________________________________________________________________
activation_23 (Activation)      (None, 32, 5, 5)     0           batch_normalization_28[0][0]     
__________________________________________________________________________________________________
activation_17 (Activation)      (None, 64, 32, 32)   0           batch_normalization_23[0][0]     
__________________________________________________________________________________________________
conv2d_30 (Conv2D)              (None, 32, 5, 5)     9248        activation_23[0][0]              
__________________________________________________________________________________________________
g_vacation (InputLayer)         (None, 1)            0                                            
__________________________________________________________________________________________________
g_hour (InputLayer)             (None, 1)            0                                            
__________________________________________________________________________________________________
g_dayOfWeek (InputLayer)        (None, 1)            0                                            
__________________________________________________________________________________________________
g_weather (InputLayer)          (None, 1)            0                                            
__________________________________________________________________________________________________
conv2d_24 (Conv2D)              (None, 64, 32, 32)   36928       activation_17[0][0]              
__________________________________________________________________________________________________
batch_normalization_29 (BatchNo (None, 32, 5, 5)     128         conv2d_30[0][0]                  
__________________________________________________________________________________________________
t_vacation (InputLayer)         (None, 1)            0                                            
__________________________________________________________________________________________________
t_hour (InputLayer)             (None, 1)            0                                            
__________________________________________________________________________________________________
t_dayOfWeek (InputLayer)        (None, 1)            0                                            
__________________________________________________________________________________________________
t_weather (InputLayer)          (None, 1)            0                                            
__________________________________________________________________________________________________
embedding_1 (Embedding)         (None, 1, 2)         4           g_vacation[0][0]                 
__________________________________________________________________________________________________
embedding_2 (Embedding)         (None, 1, 2)         50          g_hour[0][0]                     
__________________________________________________________________________________________________
embedding_3 (Embedding)         (None, 1, 2)         14          g_dayOfWeek[0][0]                
__________________________________________________________________________________________________
embedding_4 (Embedding)         (None, 1, 2)         34          g_weather[0][0]                  
__________________________________________________________________________________________________
g_continuous_external (InputLay (None, 1, 2)         0                                            
__________________________________________________________________________________________________
batch_normalization_24 (BatchNo (None, 64, 32, 32)   256         conv2d_24[0][0]                  
__________________________________________________________________________________________________
activation_24 (Activation)      (None, 32, 5, 5)     0           batch_normalization_29[0][0]     
__________________________________________________________________________________________________
embedding_5 (Embedding)         (None, 1, 2)         4           t_vacation[0][0]                 
__________________________________________________________________________________________________
embedding_6 (Embedding)         (None, 1, 2)         50          t_hour[0][0]                     
__________________________________________________________________________________________________
embedding_7 (Embedding)         (None, 1, 2)         14          t_dayOfWeek[0][0]                
__________________________________________________________________________________________________
embedding_8 (Embedding)         (None, 1, 2)         34          t_weather[0][0]                  
__________________________________________________________________________________________________
t_continuous_external (InputLay (None, 1, 2)         0                                            
__________________________________________________________________________________________________
concatenate_1 (Concatenate)     (None, 1, 10)        0           embedding_1[0][0]                
                                                                 embedding_2[0][0]                
                                                                 embedding_3[0][0]                
                                                                 embedding_4[0][0]                
                                                                 g_continuous_external[0][0]      
__________________________________________________________________________________________________
conv2d_25 (Conv2D)              (None, 64, 32, 32)   36928       batch_normalization_24[0][0]     
__________________________________________________________________________________________________
conv2d_31 (Conv2D)              (None, 32, 5, 5)     9248        activation_24[0][0]              
__________________________________________________________________________________________________
concatenate_2 (Concatenate)     (None, 1, 10)        0           embedding_5[0][0]                
                                                                 embedding_6[0][0]                
                                                                 embedding_7[0][0]                
                                                                 embedding_8[0][0]                
                                                                 t_continuous_external[0][0]      
__________________________________________________________________________________________________
flatten_1 (Flatten)             (None, 10)           0           concatenate_1[0][0]              
__________________________________________________________________________________________________
activation_18 (Activation)      (None, 64, 32, 32)   0           conv2d_25[0][0]                  
__________________________________________________________________________________________________
batch_normalization_30 (BatchNo (None, 32, 5, 5)     128         conv2d_31[0][0]                  
__________________________________________________________________________________________________
flatten_2 (Flatten)             (None, 10)           0           concatenate_2[0][0]              
__________________________________________________________________________________________________
dense_1 (Dense)                 (None, 50)           550         flatten_1[0][0]                  
__________________________________________________________________________________________________
conv2d_26 (Conv2D)              (None, 1, 32, 32)    577         activation_18[0][0]              
__________________________________________________________________________________________________
activation_25 (Activation)      (None, 32, 5, 5)     0           batch_normalization_30[0][0]     
__________________________________________________________________________________________________
dense_3 (Dense)                 (None, 50)           550         flatten_2[0][0]                  
__________________________________________________________________________________________________
dropout_1 (Dropout)             (None, 50)           0           dense_1[0][0]                    
__________________________________________________________________________________________________
flatten_3 (Flatten)             (None, 1024)         0           conv2d_26[0][0]                  
__________________________________________________________________________________________________
conv2d_32 (Conv2D)              (None, 32, 5, 5)     9248        activation_25[0][0]              
__________________________________________________________________________________________________
dropout_2 (Dropout)             (None, 50)           0           dense_3[0][0]                    
__________________________________________________________________________________________________
activation_1 (Activation)       (None, 50)           0           dropout_1[0][0]                  
__________________________________________________________________________________________________
reshape_3 (Reshape)             (None, 1, 1024)      0           flatten_3[0][0]                  
__________________________________________________________________________________________________
conv2d_33 (Conv2D)              (None, 1, 5, 5)      289         conv2d_32[0][0]                  
__________________________________________________________________________________________________
activation_3 (Activation)       (None, 50)           0           dropout_2[0][0]                  
__________________________________________________________________________________________________
dense_2 (Dense)                 (None, 2048)         104448      activation_1[0][0]               
__________________________________________________________________________________________________
dense_5 (Dense)                 (None, 1, 64)        65600       reshape_3[0][0]                  
__________________________________________________________________________________________________
flatten_5 (Flatten)             (None, 25)           0           conv2d_33[0][0]                  
__________________________________________________________________________________________________
dense_4 (Dense)                 (None, 10)           510         activation_3[0][0]               
__________________________________________________________________________________________________
activation_2 (Activation)       (None, 2048)         0           dense_2[0][0]                    
__________________________________________________________________________________________________
lstm_1 (LSTM)                   (None, 2048)         17309696    dense_5[0][0]                    
__________________________________________________________________________________________________
reshape_6 (Reshape)             (None, 1, 25)        0           flatten_5[0][0]                  
__________________________________________________________________________________________________
activation_4 (Activation)       (None, 10)           0           dense_4[0][0]                    
__________________________________________________________________________________________________
reshape_1 (Reshape)             (None, 2, 32, 32)    0           activation_2[0][0]               
__________________________________________________________________________________________________
reshape_4 (Reshape)             (None, 2, 32, 32)    0           lstm_1[0][0]                     
__________________________________________________________________________________________________
dense_8 (Dense)                 (None, 1, 64)        1664        reshape_6[0][0]                  
__________________________________________________________________________________________________
reshape_2 (Reshape)             (None, 1, 10)        0           activation_4[0][0]               
__________________________________________________________________________________________________
add_1 (Add)                     (None, 2, 32, 32)    0           reshape_1[0][0]                  
                                                                 reshape_4[0][0]                  
__________________________________________________________________________________________________
concatenate_3 (Concatenate)     (None, 1, 74)        0           dense_8[0][0]                    
                                                                 reshape_2[0][0]                  
__________________________________________________________________________________________________
flatten_4 (Flatten)             (None, 2048)         0           add_1[0][0]                      
__________________________________________________________________________________________________
att_local (LSTM)                (None, 1, 50)        25000       concatenate_3[0][0]              
__________________________________________________________________________________________________
dense_6 (Dense)                 (None, 200)          409800      flatten_4[0][0]                  
__________________________________________________________________________________________________
lambda_1 (Lambda)               (None, 0, 50)        0           att_local[0][0]                  
__________________________________________________________________________________________________
lambda_2 (Lambda)               (None, 50)           0           att_local[0][0]                  
__________________________________________________________________________________________________
dropout_3 (Dropout)             (None, 200)          0           dense_6[0][0]                    
__________________________________________________________________________________________________
attention_1 (Attention)         (None, 50)           5050        lambda_1[0][0]                   
                                                                 lambda_2[0][0]                   
__________________________________________________________________________________________________
dense_7 (Dense)                 (None, 50)           10050       dropout_3[0][0]                  
__________________________________________________________________________________________________
concatenate_4 (Concatenate)     (None, 100)          0           attention_1[0][0]                
                                                                 lambda_2[0][0]                   
__________________________________________________________________________________________________
activation_19 (Activation)      (None, 50)           0           dense_7[0][0]                    
__________________________________________________________________________________________________
dense_9 (Dense)                 (None, 50)           5050        concatenate_4[0][0]              
__________________________________________________________________________________________________
reshape_5 (Reshape)             (None, 2, 5, 5)      0           activation_19[0][0]              
__________________________________________________________________________________________________
reshape_7 (Reshape)             (None, 2, 5, 5)      0           dense_9[0][0]                    
__________________________________________________________________________________________________
ilayer_1 (ilayer)               (None, 2, 5, 5)      50          reshape_5[0][0]                  
__________________________________________________________________________________________________
ilayer_2 (ilayer)               (None, 2, 5, 5)      50          reshape_7[0][0]                  
__________________________________________________________________________________________________
add_2 (Add)                     (None, 2, 5, 5)      0           ilayer_1[0][0]                   
                                                                 ilayer_2[0][0]                   
__________________________________________________________________________________________________
activation_26 (Activation)      (None, 2, 5, 5)      0           add_2[0][0]                      
==================================================================================================
Total params: 18,880,266
Trainable params: 18,876,870
Non-trainable params: 3,396
__________________________________________________________________________________________________

Compiling model elapsed time : 9.992 seconds

==============================
…
